artifacts/hf/c65ada04bb1f477d944b84494ffa64ee86045025/policy.pt (torch, 863333 bytes, 47 tensors)

_norm_factors f4 [256]
1.0 10.0 1.0 1.0 255.0 1.0 1.0 255.0
10.0 10.0 100.0 255.0 1000.0 10.0 255.0 1.0
255.0 100.0 100.0 100.0 100.0 100.0 100.0 100.0
100.0 100.0 100.0 1.0 1.0 1.0 1.0 1.0
1.0 1.0 1.0 1.0 1.0 1.0 1.0 1.0
1.0 1.0 1.0 1.0 1.0 1.0 1.0 1.0
1.0 1.0 1.0 1.0 1.0 1.0 1.0 1.0
1.0 1.0 1.0 1.0 1.0 1.0 1.0 1.0
1.0 1.0 1.0 1.0 1.0 1.0 1.0 1.0
1.0 1.0 1.0 1.0 1.0 1.0 1.0 1.0
1.0 1.0 1.0 1.0 1.0 1.0 1.0 1.0
1.0 1.0 1.0 1.0 1.0 1.0 1.0 1.0
1.0 1.0 1.0 1.0 1.0 1.0 1.0 1.0
1.0 1.0 1.0 1.0 1.0 1.0 1.0 1.0
1.0 1.0 1.0 1.0 1.0 1.0 1.0 1.0
1.0 1.0 1.0 1.0 1.0 1.0 1.0 1.0
1.0 1.0 1.0 1.0 1.0 1.0 1.0 1.0
1.0 1.0 1.0 1.0 1.0 1.0 1.0 1.0
1.0 1.0 1.0 1.0 1.0 1.0 1.0 1.0
1.0 1.0 1.0 1.0 1.0 1.0 1.0 1.0
1.0 1.0 1.0 1.0 1.0 1.0 1.0 1.0
1.0 1.0 1.0 1.0 1.0 1.0 1.0 1.0
1.0 1.0 1.0 1.0 1.0 1.0 1.0 1.0
1.0 1.0 1.0 1.0 1.0 1.0 1.0 1.0
1.0 1.0 1.0 1.0 1.0 1.0 1.0 1.0
1.0 1.0 1.0 1.0 1.0 1.0 1.0 1.0
1.0 1.0 1.0 1.0 1.0 1.0 1.0 1.0
1.0 1.0 1.0 1.0 1.0 1.0 1.0 1.0
1.0 1.0 1.0 1.0 1.0 1.0 1.0 1.0
1.0 1.0 1.0 1.0 1.0 1.0 1.0 1.0
1.0 1.0 1.0 1.0 1.0 1.0 1.0 1.0
1.0 1.0 1.0 1.0 1.0 1.0 1.0 1.0
00000000: 0000 803f 0000 2041 0000 803f 0000 803f
00000010: 0000 7f43 0000 803f 0000 803f 0000 7f43
00000020: 0000 2041 0000 2041 0000 c842 0000 7f43
00000030: 0000 7a44 0000 2041 0000 7f43 0000 803f
00000040: 0000 7f43 0000 c842 0000 c842 0000 c842
00000050: 0000 c842 0000 c842 0000 c842 0000 c842
00000060: 0000 c842 0000 c842 0000 c842 0000 803f
00000070: 0000 803f 0000 803f 0000 803f 0000 803f
00000080: 0000 803f 0000 803f 0000 803f 0000 803f
00000090: 0000 803f 0000 803f 0000 803f 0000 803f
000000a0: 0000 803f 0000 803f 0000 803f 0000 803f
000000b0: 0000 803f 0000 803f 0000 803f 0000 803f
000000c0: 0000 803f 0000 803f 0000 803f 0000 803f
000000d0: 0000 803f 0000 803f 0000 803f 0000 803f
000000e0: 0000 803f 0000 803f 0000 803f 0000 803f
000000f0: 0000 803f 0000 803f 0000 803f 0000 803f
00000100: 0000 803f 0000 803f 0000 803f 0000 803f
00000110: 0000 803f 0000 803f 0000 803f 0000 803f
00000120: 0000 803f 0000 803f 0000 803f 0000 803f
00000130: 0000 803f 0000 803f 0000 803f 0000 803f
00000140: 0000 803f 0000 803f 0000 803f 0000 803f
00000150: 0000 803f 0000 803f 0000 803f 0000 803f
00000160: 0000 803f 0000 803f 0000 803f 0000 803f
00000170: 0000 803f 0000 803f 0000 803f 0000 803f
00000180: 0000 803f 0000 803f 0000 803f 0000 803f
00000190: 0000 803f 0000 803f 0000 803f 0000 803f
000001a0: 0000 803f 0000 803f 0000 803f 0000 803f
000001b0: 0000 803f 0000 803f 0000 803f 0000 803f
000001c0: 0000 803f 0000 803f 0000 803f 0000 803f
000001d0: 0000 803f 0000 803f 0000 803f 0000 803f
000001e0: 0000 803f 0000 803f 0000 803f 0000 803f
000001f0: 0000 803f 0000 803f 0000 803f 0000 803f
00000200: 0000 803f 0000 803f 0000 803f 0000 803f
00000210: 0000 803f 0000 803f 0000 803f 0000 803f
00000220: 0000 803f 0000 803f 0000 803f 0000 803f
00000230: 0000 803f 0000 803f 0000 803f 0000 803f
00000240: 0000 803f 0000 803f 0000 803f 0000 803f
00000250: 0000 803f 0000 803f 0000 803f 0000 803f
00000260: 0000 803f 0000 803f 0000 803f 0000 803f
00000270: 0000 803f 0000 803f 0000 803f 0000 803f
00000280: 0000 803f 0000 803f 0000 803f 0000 803f
00000290: 0000 803f 0000 803f 0000 803f 0000 803f
000002a0: 0000 803f 0000 803f 0000 803f 0000 803f
000002b0: 0000 803f 0000 803f 0000 803f 0000 803f
000002c0: 0000 803f 0000 803f 0000 803f 0000 803f
000002d0: 0000 803f 0000 803f 0000 803f 0000 803f
000002e0: 0000 803f 0000 803f 0000 803f 0000 803f
000002f0: 0000 803f 0000 803f 0000 803f 0000 803f
00000300: 0000 803f 0000 803f 0000 803f 0000 803f
00000310: 0000 803f 0000 803f 0000 803f 0000 803f
00000320: 0000 803f 0000 803f 0000 803f 0000 803f
00000330: 0000 803f 0000 803f 0000 803f 0000 803f
00000340: 0000 803f 0000 803f 0000 803f 0000 803f
00000350: 0000 803f 0000 803f 0000 803f 0000 803f
00000360: 0000 803f 0000 803f 0000 803f 0000 803f
00000370: 0000 803f 0000 803f 0000 803f 0000 803f
00000380: 0000 803f 0000 803f 0000 803f 0000 803f
00000390: 0000 803f 0000 803f 0000 803f 0000 803f
000003a0: 0000 803f 0000 803f 0000 803f 0000 803f
000003b0: 0000 803f 0000 803f 0000 803f 0000 803f
000003c0: 0000 803f 0000 803f 0000 803f 0000 803f
000003d0: 0000 803f 0000 803f 0000 803f 0000 803f
000003e0: 0000 803f 0000 803f 0000 803f 0000 803f
000003f0: 0000 803f 0000 803f 0000 803f 0000 803f

frequencies f4 [3]
1.0 2.0 4.0
00000000: 0000 803f 0000 0040 0000 8040

weight f4 [256, 8]
0.01008635 0.018648198 0.009897234 0.004428689 -0.0042711687 0.02185111 0.008410343 -0.028497726
-0.013215726 0.030809902 -0.0031420724 0.004320703 0.013469513 -0.028951246 0.00320158 -0.014315813
-0.0038229057 0.000852386 -0.030148236 -0.03674742 0.0148030305 0.0124747455 0.004966965 -0.016655922
-0.04469143 -0.0066036023 0.0068123834 0.0067561106 -0.025639221 -0.025070682 -0.03652651 0.029165976
0.0044678347 0.012530428 0.012576499 0.018011533 -0.012149626 -0.029062359 -0.022172224 -0.015992893
-0.011434371 0.04498436 0.0010593389 0.011808294 0.020901036 0.021052994 -0.025249511 -0.027927345
-0.020007811 -0.01703815 0.008250253 0.0049353656 0.015198553 0.03651782 -0.006388344 -0.0022161251
0.0068897507 0.0074532717 -0.0043239775 0.0031141532 -0.045580164 -0.028886793 -0.023210298 -0.005101152
0.011086385 0.013805874 0.026973564 -0.030874928 -0.0270658 0.019622752 0.0063279164 0.008924454
0.009068298 -0.017853726 0.030624002 -0.021703515 0.0122533785 -0.01250434 -0.008070275 0.018208576
0.024724647 0.00548193 -0.01943837 0.021436337 -0.004648597 -0.0054885754 -0.024460966 0.040487304
-0.009683534 -0.0013366602 0.01416028 -0.004582179 -0.024114335 -0.00012153711 0.015211933 0.016538966
0.03992181 0.030061401 0.0048165224 0.007404355 -0.007907186 -0.021340504 -0.026893696 -0.008739679
-0.026127547 0.014843337 0.010224359 -0.010637422 -0.0183953 0.019544955 0.0402686 -0.010415451
-0.005509766 0.0034488859 -0.012810631 0.0007308928 -0.005516514 -0.010459662 0.026069136 -0.011399965
0.018030917 -0.02666004 0.010298985 -0.03339956 0.038814105 -0.01596846 0.024756042 0.024216946
0.02122036 -0.0018913666 0.004584323 0.015155705 0.027398253 0.0012805515 -0.019005572 0.005106254
-0.010932835 0.034551542 -0.013298221 0.02270564 0.0028070945 0.00091274147 -0.00018746333 0.010670048
0.03400376 0.00037059758 0.0030853916 -0.026647776 -0.022599025 0.017502107 -0.032326423 0.002649623
-0.0019537567 -0.024987048 -0.031180494 -0.010034362 -0.0050630365 0.010882035 -0.01415152 -0.010582671
-0.024134064 0.005247831 0.011442144 -0.008523708 0.0110347085 -0.029924387 0.0008992469 -0.00458051
-0.020030359 0.0030502526 0.0029935094 -0.0015809422 0.010611849 0.0015218387 0.027938753 0.0016373701
0.004746175 0.0034324275 0.0006904139 0.017797112 0.026843708 -0.026979985 0.028095715 -0.015201581
-0.021095442 0.024362072 -0.0021116047 0.011130076 -0.004059935 -0.042641103 0.053746913 -0.00080287794
0.011979318 0.018865012 -0.011395454 0.011766442 -0.027301498 -0.008984937 0.03034211 -0.011962379
-0.016290009 0.009602914 -0.020855667 -0.016416242 -0.00156017 0.038524076 -0.071083605 -0.04895725
0.020905714 -0.017403211 -0.019941904 0.010583921 0.02673414 -0.0018164467 0.004438576 -0.029581325
-0.0330531 0.018017776 -0.007778644 -0.00611254 0.0012960293 0.03319953 0.001098033 0.00031167196
0.022138739 0.016573183 0.0068691866 0.009000215 -0.008182367 -0.010165125 0.0050854282 -0.02651601
0.013862239 -0.012040209 -0.009813674 -0.009553829 -0.0168016 0.005586204 -0.026541203 -0.014063537
0.00671981 0.00024726242 0.0049677263 0.01579064 -0.010755712 0.014429806 0.007500046 0.023117123
-0.0064266 -0.0061291773 0.008888039 0.00056977075 -0.029585438 0.013897089 0.0047532474 -0.003623818
00000000: 3841 253c 1bc4 983c 0228 223c 891e 913b
00000010: 29f5 8bbb 1901 b33c 89cb 093c 1074 e9bc
00000020: c686 58bc 0c65 fc3c 3aeb 4dbb af94 8d3b
00000030: 3baf 5c3c 2a2b edbc 99d1 513b df8c 6abc
00000040: b789 7abb a872 5f3a 6ff9 f6bc 7684 16bd
00000050: 6988 723c e062 4c3c ecc1 a23b 0072 88bc
00000060: 5c0e 37bd 0863 d8bb 6a3a df3b 5d62 dd3b
00000070: 5809 d2bc 0861 cdbc d29c 15bd 7ced ee3c
00000080: ea66 923b 6d4c 4d3c a90d 4e3c ec8c 933c
00000090: 3a0f 47bc 2f14 eebc 86a2 b5bc 8703 83bc
000000a0: 3a57 3bbc 8541 383d 84d9 8a3a 9377 413c
000000b0: a638 ab3c 5477 ac3c 10d8 cebc e3c7 e4bc
000000c0: 6ce7 a3bc 9793 8bbc 122c 073c d9b8 a13b
000000d0: 5a03 793c b693 153d 5055 d1bb 693c 11bb
000000e0: 6bc3 e13b 933a f43b 27b0 8dbb d216 4c3b
000000f0: 44b2 3abd ffa3 ecbc 8623 bebc 9127 a7bb
00000100: aba3 353c 0832 623c aaf7 dc3c 6bed fcbc
00000110: 19b9 ddbc e5bf a03c 695a cf3b e037 123c
00000120: 3393 143c fa41 92bc 30df fa3c 92cb b1bc
00000130: 65c2 483c 01df 4cbc 3039 04bc 272a 953c
00000140: 588b ca3c c3a1 b33b 373d 9fbc 429b af3c
00000150: 4253 98bb 82d9 b3bb 5d62 c8bc 04d6 253d
00000160: afa7 1ebc e032 afba 8500 683c 1a26 96bb
00000170: 6d8b c5bc bde1 feb8 793b 793c ba7c 873c
00000180: 0d85 233d 5443 f63c ebd3 9d3b 3ba0 f23b
00000190: 248d 01bc 48d2 aebc 2b50 dcbc df30 0fbc
000001a0: 7009 d6bc 7831 733c 1284 273c 9548 2ebc
000001b0: bdb1 96bc be1c a03c b0f0 243d 91a5 2abc
000001c0: 448b b4bb b406 623b aee3 51bc 6399 3f3a
000001d0: e0c3 b4bb 015f 2bbc f18e d53c ebc6 3abc
000001e0: 93b5 933c 2866 dabc 13bd 283c facd 08bd
000001f0: 8afb 1e3d 4ad0 82bc 2fcd ca3c 9e62 c63c
00000200: 52d6 ad3c bbe7 f7ba 1738 963b a24f 783c
00000210: 4d72 e03c 2ed8 a73a 93b1 9bbc 5d52 a73b
00000220: a21f 33bc eb85 0d3d c8e0 59bc 2e01 ba3c
00000230: 3bf7 373b 0b45 6f3a ce91 44b9 6dd1 2e3c
00000240: 8747 0b3d c44c c239 4834 4a3b 704c dabc
00000250: 9721 b9bc 9460 8f3c b668 04bd 4ca5 2d3b
00000260: 990a 00bb a3b1 ccbc 3c6e ffbc 2a67 24bc
00000270: d4e7 a5bb 904a 323c c7db 67bc f062 2dbc
00000280: cdb4 c5bc fff5 ab3b d577 3b3c 06a7 0bbc
00000290: ecca 343c fd23 f5bc 70bb 6b3a 1a18 96bb
000002a0: b516 a4bc bfe6 473b c12e 443b 9e37 cfba
000002b0: 52dd 2d3c 6f78 c73a d0df e43c 069d d63a
000002c0: cd85 9b3b 94f2 603b e4fc 343a 40cb 913c
000002d0: 56e7 db3c 2105 ddbc fc28 e63c 0d10 79bc
000002e0: 59d0 acbc f892 c73c d962 0abb ec5a 363c
000002f0: 3409 85bb 70a8 2ebd b925 5c3d 3a78 52ba
00000300: e744 443c cc8a 9a3c 00b4 3abc 09c8 403c
00000310: 64a7 dfbc 8f35 13bc 0490 f83c dbfd 43bc
00000320: a072 85bc 8a55 1d3c 81d9 aabc 5b7b 86bc
00000330: 9e7e ccba 6ccb 1d3d 4894 91bd 6687 48bd
00000340: 7642 ab3c 2e91 8ebc 345d a3bc 2f68 2d3c
00000350: 8e01 db3c d615 eeba 7971 913b 8954 f2bc
00000360: b062 07bd 049a 933c ffe3 febb b44b c8bb
00000370: 87df a93a 3bfc 073d e0eb 8f3a e767 a339
00000380: 4d5c b53c 7cc4 873c ea16 e13b a375 133c
00000390: 560f 06bc a08b 26bc aaa3 a63b 1a38 d9bc
000003a0: 721e 633c 4c44 45bc 88c9 20bc aa87 1cbc
000003b0: 82a3 89bc 7a0c b73b f06c d9bc c06a 66bc
000003c0: da31 dc3b 00a3 8139 4fc8 a23b 5f5b 813c
000003d0: ba38 30bc fe6a 6c3c f2c2 f53b 1f60 bd3c
000003e0: 3a96 d2bb 44d7 c8bb 239f 113c ab5c 153a
000003f0: 295d f2bc 9eb0 633c 21c1 9b3b 947d 6dbb

latents f4 [1, 12, 64]
0.022457482 -0.004471059 0.02162583 0.03688006 0.0088187065 -0.02209524 0.023666533 -0.01990727
0.011782167 -0.04903961 0.0070719915 -0.050514806 0.040289626 0.0416314 -0.011183421 0.03701251
-0.0007274429 0.0021257203 0.0079549365 0.007179999 0.01492134 -0.017420169 -0.015774451 -0.008071463
-0.00982281 0.019569207 -0.01849633 -0.018634124 -0.001257382 0.014141895 -0.002793753 -0.008930833
-0.017952733 -0.020291202 -0.0008173264 0.0056463256 -0.028254436 0.008188044 -0.009967857 0.011715531
-0.013773305 0.0121417735 -0.032346535 0.03681934 0.004946835 -0.016485373 0.06409436 0.008967696
0.016004577 -0.003859449 -0.015271047 -0.013496375 0.0122560365 -0.0046639894 -0.018329887 0.01747635
0.021618485 -0.036486235 -0.004629551 -0.013007251 -0.028631922 -0.011018196 0.033189006 0.01767443
-0.037963618 0.0094081 -0.016998067 0.019447653 0.009387624 0.01220885 0.009378374 -0.006553884
0.02464658 -0.029075056 -0.017199486 -0.024814123 0.014965457 0.011540995 0.007872783 0.016586322
0.051732786 -0.055639938 -0.00034604865 -0.007220583 0.010029216 0.023342863 -0.0049289665 0.008124117
0.030753251 -0.03251746 0.015068351 0.0007864079 0.044068146 0.0043410617 -0.03250432 0.0059168674
-0.03953745 -0.02376158 0.027887791 -0.007822402 -0.021133373 0.009758574 0.0005329122 0.0013913473
-0.0059680897 0.021406127 0.005108844 -0.02196901 0.0006677067 -0.0019465467 0.04421156 -0.010835076
-0.049885646 0.024858313 -0.008451678 -0.033999555 -0.022210287 0.009823838 -0.0046863407 -0.007970963
-0.0074936314 -0.009890088 -0.0079758 0.0028664684 0.014815365 0.0071105505 0.00417397 -0.008446686
-0.0020050195 0.027516592 -0.023615262 -0.038830154 0.014978186 -0.019932128 -0.008016739 -0.03947058
-0.02303022 -0.029515222 0.014032148 0.014752572 -0.0022050124 -0.0058212224 0.013942013 -0.0358228
0.027401626 -0.005627168 -0.013239897 0.006475705 0.006307974 0.007027095 0.0015454363 0.0030136732
-0.013207856 -0.010691178 0.0111882845 0.018544903 0.027231261 -0.012800289 0.025233213 -0.013827828
0.0008883278 -0.018591197 0.0064134113 -0.0039066025 0.020917723 -0.01755678 -0.0027673612 0.0030498803
-0.03424772 -0.020826984 -0.004531866 0.015491352 -0.00029496042 -0.0011538789 0.034836266 0.0074372897
0.02358242 0.034619708 -0.005284054 0.0031476584 0.0034669363 -0.0069048116 -0.02186135 0.0094290245
-0.039646167 0.021146033 -0.0082705915 0.02281468 -0.007827539 0.018286709 -0.020854276 0.007929052
-0.033591844 0.00398397 0.017500017 -0.031634543 0.03170558 0.0058953837 0.0013106392 0.03073835
0.013710759 -0.012875444 -0.0012625791 -0.0042768326 0.011873132 0.02459949 -0.006580219 -0.0017654585
0.03465361 -0.022108523 -0.0045876955 0.021297472 -0.026959786 0.024274383 0.012495609 0.0026889662
0.0008509006 -0.015661705 0.0256926 0.0110915955 0.019154875 -0.0064795706 -0.003024784 0.03535311
0.02323975 0.02531144 -0.008833107 -0.010317452 -0.025155967 0.0207517 -0.0152524635 -0.0035485565
-0.012620462 -0.021949163 0.027574748 -0.011522257 0.0047731646 -0.0046515604 0.008802688 -0.041181054
-0.009432195 0.01373855 -0.030243766 0.007880813 0.03819432 0.016543163 0.0011010723 0.011725671
0.050377563 -0.005687713 -0.010540273 0.022685435 -0.022175375 0.020933433 -0.0200478 -0.019992754
00000000: c1f8 b73c f681 92bb a728 b13c 8c0f 173d
00000010: 567c 103c 1401 b5bc 51e0 c13c 9214 a3bc
00000020: fd09 413c c2dd 48bd 2abc e73b 9de8 4ebd
00000030: bc06 253d b085 2a3d ab3a 37bc 6e9a 173d
00000040: deb1 3eba ab4f 0b3b 6c55 023c 3246 eb3b
00000050: a378 743c beb4 8ebc 6c39 81bc 2b3e 04bc
00000060: daef 20bc 9a4f a03c 9e85 97bc 97a6 98bc
00000070: bdce a4ba 68b3 673c 6617 37bb a152 12bc
00000080: 9c11 93bc bc39 a6bc d941 56ba d004 b93b
00000090: d975 e7bc 2527 063c 3950 23bc 80f2 3f3c
000000a0: 6ea9 61bc 4aee 463c cd7d 04bd e0cf 163d
000000b0: 0f19 a23b 550c 87bc e743 833d 3eed 123c
000000c0: 081c 833c cfee 7cbb 6a33 7abc e61f 5dbc
000000d0: 8bcd 483c 61d4 98bb 8f28 96bc 902a 8f3c
000000e0: 4019 b13c 9772 15bd 7db3 97bb 5d1c 55bc
000000f0: 7e8d eabc aa85 34bc 32f1 073d f7c9 903c
00000100: bd7f 1bbd 6e24 1a3c 883f 8bbc af50 9f3c
00000110: 8dce 193c a107 483c c0a7 193c f7c1 d6bb
00000120: a0e7 c93c d02e eebc f0e5 8cbc fd46 cbbc
00000130: ad31 753c 7116 3d3c d8fc 003c 0ae0 873c
00000140: c2e5 533d b4e6 63bd dd6d b5b9 a49a ecbb
00000150: 9551 243c 8839 bf3c 2b83 a1bb 041b 053c
00000160: 3eee fb3c 0731 05bd 3fe1 763c f126 4e3a
00000170: cd80 343d 773f 8e3b 4023 05bd 48e2 c13b
00000180: 05f2 21bd a5a7 c2bc f074 e43c 8829 00bc
00000190: e51f adbc 6de2 1f3c 22b3 0b3a de5d b63a
000001a0: f78f c3bb e75b af3c 1768 a73b 5af8 b3bc
000001b0: 0a09 2f3a 4523 ffba 2e17 353d 9a85 31bc
000001c0: e454 4cbd a9a3 cb3c e878 0abc 1e43 0bbd
000001d0: 59f2 b5bc 2af4 203c e08f 99bb a498 02bc
000001e0: 238d f5bb 090a 22bc eeac 02bc 5cdb 3b3b
000001f0: 25bc 723c 9fff e83b ccc5 883b f863 0abc
00000200: a566 03bb 7a6a e13c cb74 c1bc 5e0c 1fbd
00000210: 1167 753c b448 a3bc a458 03bc e7ab 21bd
00000220: dfa9 bcbc e8c9 f1bc 18e7 653c c6b4 713c
00000230: f881 10bb f4bf bebb 0a6d 643c eeba 12bd
00000240: 6079 e03c 1b64 b8bb 27ec 58bc 2732 d43b
00000250: 1fb3 ce3b 8c43 e63b 3d90 ca3a 0c81 453b
00000260: c365 58bc 0d2a 2fbc 114f 373c 7beb 973c
00000270: 1814 df3c 4eb8 51bc e2b5 ce3c 1d8e 62bc
00000280: abde 683a 914c 98bc 9827 d23b f502 80bb
00000290: a55b ab3c 3cd3 8fbc 9e5c 35bb 80e0 473b
000002a0: 5647 0cbd 5a9d aabc 0c80 94bb 71cf 7d3c
000002b0: eba4 9ab9 c03d 97ba 79b0 0e3d 82b4 f33b
000002c0: eb2f c13c 65cd 0d3d dc25 adbb f248 4e3b
000002d0: 8a35 633b c241 e2bb 9316 b3bc 327c 1a3c
000002e0: 0564 22bd 723a ad3c 6081 07bc dae5 ba3c
000002f0: 143f 00bc 02ce 953c 96d6 aabc dbe8 013c
00000300: 9a97 09bd f68b 823b 325c 8f3c 3993 01bd
00000310: b6dd 013d 102e c13b c1c9 ab3a fece fb3c
00000320: 17a3 603c 87f3 52bc 207d a5ba ac24 8cbb
00000330: 8687 423c df84 c93c e19e d7bb f566 e7ba
00000340: f2f0 0d3d ef1c b5bc 6154 96bb 0978 ae3c
00000350: c5da dcbc 12db c63c 62ba 4c3c 5e39 303b
00000360: f90e 5f3a fa4c 80bc 4a79 d23c 86b9 353c
00000370: afea 9c3c 9452 d4bb 743b 46bb 6cce 103d
00000380: 4a61 be3c f059 cf3c bcb8 10bc 880a 29bc
00000390: e313 cebc 78ff a93c 78e5 79bc e68e 68bb
000003a0: 0ec6 4ebc bbce b3bc 70e4 e13c d9c7 3cbc
000003b0: 3568 9c3b 1e6c 98bb 2639 103c 77ad 28bd
000003c0: 7e89 1abc a817 613c c6c1 f7bc 871e 013c
000003d0: a671 1c3d 8785 873c db51 903a 071d 403c
000003e0: b458 4e3d ff5f babb 1cb1 2cbc ced6 b93c
000003f0: 22a9 b5bc 977c ab3c 493b a4bc d8c7 a3bc

weight f4 [21]
1.002626 0.9973988 0.9961701 1.0026925 0.99870586 0.99187183 1.0027523 0.99958587
1.0046085 1.003579 1.0009025 0.9995926 0.9980008 0.9989749 1.0022305 1.0006211
0.9896529 0.9983838 0.99580175 1.0028266 0.99707067
00000000: 0c56 803f 8755 7f3f 0105 7f3f 3a58 803f
00000010: 30ab 7f3f 50eb 7d3f 305a 803f dce4 7f3f
00000020: 0397 803f 4775 803f 931d 803f 4de5 7f3f
00000030: fb7c 7f3f d2bc 7f3f 1749 803f 5a14 803f
00000040: e459 7d3f 1596 7f3f ddec 7e3f 9f5c 803f
00000050: 0640 7f3f

bias f4 [21]
-0.0024006213 0.0025165358 0.0036289336 -0.0025899056 0.0015283627 0.0070726443 -0.0024190217 -2.6809488e-05
0.0045532007 0.0036632717 0.003148047 -0.0004095066 -0.0009872774 -0.004564816 0.002093766 0.0026531355
-0.00077255495 9.146715e-05 0.0022476404 -0.00285863 -0.0026926112
00000000: be53 1dbb 77ec 243b 67d3 6d3b 68bb 29bb
00000010: 5853 c83a a4c1 e73b 7388 1ebb f0e4 e0b7
00000020: 0433 953b 8013 703b 774f 4e3b 0cb3 d6b9
00000030: 8867 81ba 7494 95bb 9037 093b 3ae0 2d3b
00000040: 4985 4aba 0dd2 bf38 264d 133b da57 3bbb
00000050: 8576 30bb

weight f4 [64, 21]
0.12663779 -0.0007865708 -0.1401922 0.065833695 -0.031287532 0.21456875 0.05197703 0.057273157
0.059958283 -0.0126221925 -0.08888933 0.19357026 -0.033691365 -0.11640689 -0.2094599 0.0060778745
0.057146013 -0.13922171 0.20037054 0.14622745 -0.17314778 -0.10746173 -0.050462104 -0.21281356
-0.17734216 0.18275097 -0.12685484 0.019551678 0.18104401 -0.00081732305 0.20546387 -0.062146842
-0.1592147 0.18078427 -0.06912294 0.2162054 0.20019914 0.10740046 0.07053031 0.17386138
0.19780615 0.0074039777 -0.1791676 0.109051704 0.0025520744 0.055588976 0.12829603 -0.05507422
-0.124631494 -0.19182049 0.049755752 0.01690866 0.16811295 -0.17509024 -0.0723472 -0.06196137
-0.13790748 -0.08848516 -0.19292778 -0.15794116 0.06271655 -0.05238266 -0.20157044 0.035351288
0.20422922 0.11750451 -0.025260625 0.1087535 0.15838663 -0.020525277 0.04175762 0.007691742
0.10540689 0.107375674 0.09188592 0.015740436 0.1711179 -0.15766627 0.1030824 -0.109206036
0.20570979 -0.013925317 0.1988306 -0.05820203 -0.188072 0.1270366 -0.09304559 -0.049095683
0.19332923 -0.06211262 0.020685932 -0.052794494 -0.062600456 0.16492417 -0.052058056 -0.07516374
0.1147763 0.06668855 -0.07078824 -0.14630826 0.042235818 0.1853538 -0.13209915 -0.007589701
-0.12504208 -0.17931312 0.18173577 0.037156634 -0.17495352 0.20431232 0.035847407 0.0534135
-0.21942987 0.08766335 0.17593652 -0.0745048 0.00572595 -0.047125354 0.17373663 0.14014246
0.051852364 0.13550785 -0.19903946 -0.18663435 -0.030436682 0.004437307 0.17416014 0.12986015
-0.117812835 0.092192605 -0.19102582 0.14384674 0.12756173 -0.05238332 0.21182565 0.08480331
0.079988904 0.07483583 0.11026042 -0.0369133 0.062382393 -0.08352939 0.12445129 0.21704218
-0.03223577 0.09587592 0.1549808 0.15671004 0.19506466 0.19220184 0.1018886 -0.049776543
0.21264595 -0.08133452 -0.12956758 -0.10288287 0.005947335 0.18593492 -0.15971166 -0.1879308
0.010413225 0.039033547 -0.1335818 0.06625956 0.18632275 -0.08257771 -0.19597018 0.1161496
-0.13450143 0.12188168 0.08176966 -0.13601391 0.04443214 -0.0783483 0.1706988 0.022441596
-0.06071981 0.18458714 -0.10150469 -0.06039428 0.06810231 -0.10206267 0.20247255 0.09480777
-0.17178904 0.15120165 0.027028542 0.17662747 0.18427609 0.10310753 -0.08137686 -0.0014978647
-0.12622643 0.0199834 -0.09784731 0.16942339 0.20374775 -0.11056827 0.0042971526 0.19988222
-0.1733244 -0.1944166 0.09084791 0.1944581 -0.032396268 0.16871898 0.011705111 -0.071506724
-0.11828511 0.18790516 0.022951482 -0.017106738 0.20310746 -0.19299011 0.06464489 -0.13901722
0.2133417 -0.028139915 -0.025086178 0.11567233 -0.09164944 0.05499442 0.17563353 -0.1696855
0.0040484457 0.03693968 -0.00050240726 0.052660536 -0.037616313 -0.0641757 0.17843345 -0.15839969
-0.14422683 0.050884776 0.07461729 0.21012938 0.1815006 -0.15089238 0.0068990523 0.13287058
-0.0014711554 -0.12780446 -0.16767155 -0.16307485 -0.020929765 -0.12432312 -0.18145853 0.08087993
0.056134425 0.043817252 0.11175609 0.049206596 -0.19264603 -0.20881358 0.070689686 0.18992585
00000000: 56ad 013e df31 4eba 8b8e 0fbe d1d3 863d
00000010: 5b27 00bd e9b7 5b3e dee5 543d 4297 6a3d
00000020: d196 753d 50cd 4ebc 9c0b b6bd 4837 463e
00000030: f5ff 09bd bc66 eebd a87c 56be e828 c73b
00000040: f011 6a3d 2390 0ebe ef2d 4d3e a6bc 153e
00000050: a74d 31be e514 dcbd 5ab1 4ebd cceb 59be
00000060: 2f99 35be 1223 3b3e 3ce6 01be d72a a03c
00000070: 9a63 393e 9f41 56ba 1f65 523e b08d 7ebd
00000080: 2e09 23be 831f 393e 5490 8dbd f364 5d3e
00000090: 0101 4d3e c6f4 db3d 3272 903d b808 323e
000000a0: b28d 4a3e 119d f23b b677 37be 8056 df3d
000000b0: b440 273b 44b1 633d 0960 033e 8195 61bd
000000c0: cc3e ffbd 976c 44be b0cc 4b3d 0884 8a3c
000000d0: cd25 2c3e db4a 33be c52a 94bd 35cb 7dbd
000000e0: 9e37 0dbe b537 b5bd dc8e 45be 54bb 21be
000000f0: 8971 803d 338f 56bd 7b68 4ebe 83cc 103d
00000100: 7721 513e 34a6 f03d 5fef cebc 28ba de3d
00000110: 1b30 223e a024 a8bc 0a0a 2b3d 020b fc3b
00000120: 91df d73d c7e7 db3d af2e bc3d 16f2 803c
00000130: 8839 2f3e 4473 21be de1c d33d 6aa7 dfbd
00000140: 96a5 523e 0327 64bc 409a 4b3e 4065 6ebd
00000150: f295 40be e215 023e b08e bebd 8e18 49bd
00000160: 19f8 453e cd69 7ebd 8b75 a93c 0a3f 58bd
00000170: ab34 80bd e2e1 283e d43a 55bd 72ef 99bd
00000180: d60f eb3d 0294 883d 6df9 90bd d5d1 15be
00000190: 77ff 2c3d 63cd 3d3e 0045 07be 07b3 f8bb
000001a0: 080b 00be dc9d 37be f118 3a3e 8e31 183d
000001b0: 0427 33be 4037 513e bbd4 123d 1dc8 5a3d
000001c0: 39b2 60be d888 b33d b428 343e f995 98bd
000001d0: c0a0 bb3b 8406 41bd 04e8 313e 8181 0f3e
000001e0: 2563 543d 92c2 0a3e 00d1 4bbe 131d 3fbe
000001f0: 5956 f9bc d466 913b 0957 323e 0ffa 043e
00000200: db47 f1bd 7acf bc3d 469c 43be 8f4c 133e
00000210: 8b9f 023e e48f 56bd d3e8 583e 5cad ad3d
00000220: 39d1 a33d 8743 993d 37d0 e13d 6732 17bd
00000230: ae84 7f3d 7511 abbd 51e0 fe3d 4e40 5e3e
00000240: a809 04bd 985a c43d 49b3 1e3e 9978 203e
00000250: 08bf 473e 8fd0 443e f8aa d03d 7de2 4bbd
00000260: dcbf 593e b692 a6bd 5dad 04be 41b4 d2bd
00000270: dde1 c23b b965 3e3e 748b 23be ee70 40be
00000280: 3b9c 2a3c a4e1 1f3d abc9 08be 18b3 873d
00000290: 64cb 3e3e 811e a9bd 68ac 48be d7df ed3d
000002a0: beba 09be 1a9d f93d da76 a73d 3b47 0bbe
000002b0: 7afe 353d 1375 a0bd abcb 2e3e 70d7 b73c
000002c0: 56b5 78bd 6904 3d3e b1e1 cfbd fe5f 77bd
000002d0: 3979 8b3d 3c06 d1bd f754 4f3e 932a c23d
000002e0: 77e9 2fbe 9bd4 1a3e f66a dd3c d5dd 343e
000002f0: dfb2 3c3e 0a2a d33d e9a8 a6bd 0054 c4ba
00000300: 8041 01be 3ab4 a33c 2c64 c8bd 537d 2d3e
00000310: 40a3 503e 9e71 e2bd 21cf 8c3b edad 4c3e
00000320: f47b 31be 2515 47be 780e ba3d 0620 473e
00000330: f3b1 04bd abc4 2c3e cbc6 3f3c 1e72 92bd
00000340: 773f f2bd 366a 403e bf04 bc3c 6e23 8cbc
00000350: 67fb 4f3e 339f 45be 8a64 843d 885a 0ebe
00000360: 3f76 5a3e ae85 e6bc 8781 cdbc 9de5 ec3d
00000370: b4b2 bbbd d441 613d 47d9 333e 09c2 2dbe
00000380: d3a8 843b 104e 173d fbb3 03ba 93b2 573d
00000390: 9013 1abd 8d6e 83bd 42b7 363e 8733 22be
000003a0: 33b0 13be 8e6c 503d f3d0 983d 282c 573e
000003b0: 4bdb 393e 8883 1abe 7211 e23b 3a0f 083e
000003c0: c9d3 c0ba 2cdf 02be 17b2 2bbe 18fd 26be
000003d0: e674 abbc 1f9d febd 44d0 39be 60a4 a53d
000003e0: 36ed 653d b879 333d 60e0 e43d db8c 493d
000003f0: 0045 45be 3ad3 55be c1c5 903d ec7b 423e

weight f4 [64, 21]
-0.08654609 -0.10346442 -0.069541305 -0.07450036 0.038337152 0.011882171 0.15711178 -0.16110669
0.07637739 -0.05323741 -0.12612356 0.13504696 -0.0896342 0.005457731 -0.06994198 0.16374291
0.07204474 0.018113025 -0.020093497 -0.03463039 0.18206652 0.09861609 -0.18572864 -0.03871786
0.2100559 -0.11339093 -0.009104889 -0.17926924 -0.12106635 -0.06391504 -0.04949868 0.05914792
0.037399415 0.18590875 -0.18965371 0.20952931 -0.104655996 -0.029761236 -0.15264794 0.050337523
-0.18139447 0.014467862 0.20037772 0.1515038 0.020550177 0.18669868 0.0028917468 -0.18270011
-0.0793483 0.1496745 0.0673001 0.19272166 -0.20064434 0.033543017 0.18198664 -0.16981955
0.11428465 0.051918305 -0.084207945 -0.095934585 -0.008935927 -0.116015546 0.018911911 -0.21119708
0.18755482 0.01442626 -0.119764104 0.16798376 0.1727551 0.0071891444 -0.2112597 -0.05035759
-0.17599444 -0.1016328 0.19767417 0.063793905 0.008494711 0.054556824 0.14841995 0.15774815
0.18068048 -0.1592057 -0.06391789 -0.17163916 -0.21749896 -0.07268847 0.015033802 0.20065959
0.07998634 -0.1627965 -0.096758015 0.054968044 -0.07415524 0.21945475 0.21914248 0.035429984
-0.119939186 -0.05382812 0.16166817 -0.13583507 0.10560569 -0.20251727 0.09500376 0.021877835
-0.099627316 -0.01625263 -0.17957966 0.008761729 -0.018346712 0.09028144 -0.09558594 0.05836461
0.020857023 -0.1708441 0.1401356 0.18080772 -0.19274728 -0.18078433 0.13216585 -0.07521662
-0.035519775 -0.05208833 0.21657172 -0.10825993 0.21821228 0.13856433 -0.109480955 -0.12954134
-0.12615801 -0.1133824 -0.11832259 0.20884384 -0.018619044 0.15386611 0.0063091842 -0.17482002
-0.05060676 0.21130261 0.1675796 0.0007943023 -0.19357432 0.1959674 -0.009058471 0.15312041
-0.19413258 0.20639999 -0.083907984 0.14998902 -0.08232312 0.046420615 0.011002707 -0.02218032
0.109731816 -0.010696512 0.085505344 -0.012071275 0.025745519 -0.0066998857 0.053643443 -0.15139148
0.16062295 -0.043906163 0.17256944 -0.035939623 0.10554245 -0.15379916 -0.12941855 0.008393755
0.11498839 -0.10819367 0.083801664 -0.040928952 -0.15084131 0.20811798 0.026358156 -0.048263907
0.02757648 0.063764565 -0.07293406 -0.18574403 -0.16323796 0.19516511 0.0032543405 -0.08335738
-0.072112285 -0.06525539 -0.14943948 -0.09728994 0.14262702 -0.2155772 -0.1582239 -0.12430635
-0.12850654 -0.18874423 0.09519653 -0.0529223 -0.16940014 0.16218735 0.06333535 -0.18973342
0.17527585 -0.071498424 0.06565663 0.05554097 -0.035825755 -0.09061467 0.117217295 -0.1983992
-0.0005382692 0.16506977 -0.0829392 0.026983691 -0.063576125 0.020223357 0.012406491 -0.11013054
-0.09030083 0.09975742 -0.06717694 -0.07198947 0.06958159 0.10400924 -0.020140106 -0.09226605
-0.09767306 0.092701785 0.047813084 0.1534694 -0.18036467 0.059818786 0.09711353 0.16643322
0.14114656 -0.015241202 -0.02295337 0.1344946 -0.19819717 0.074874535 0.17670213 -0.063124835
-0.1767634 -0.028546125 0.12722039 -0.16236591 -0.11249782 0.04672959 0.17079654 -0.21233726
-0.00636202 0.08739391 0.005468109 -0.15885994 -0.08381618 0.014196511 0.039814424 0.08944225
00000000: 143f b1bd 27e5 d3bd ac6b 8ebd a593 98bd
00000010: 6b07 1d3d 70ad 423c e9e1 203e 27f9 24be
00000020: c06b 9c3d 780f 5abd 8926 01be c049 0a3e
00000030: 2392 b7bd c4d6 b23b be3d 8fbd 39ac 273e
00000040: 318c 933d c461 943c 1e9b a4bc 99d8 0dbd
00000050: a56f 3a3e 3cf7 c93d a62f 3ebe 9e96 1ebd
00000060: e518 573e 8139 e8bd ac2c 15bc 5b92 37be
00000070: a2f1 f7bd e3e5 82bd 21bf 4abd 1745 723d
00000080: 2130 193d dd5e 3e3e 9534 42be da8e 563e
00000090: e255 d6bd d6cd f3bc be4f 1cbe b82e 4e3d
000000a0: 79bf 39be 9d0a 6d3c d12f 4d3e d023 1b3e
000000b0: d858 a83c f02d 3f3e 7683 3d3b bd15 3bbe
000000c0: 5d81 a2bd 4644 193e a3d4 893d d458 453e
000000d0: b675 4dbe 6764 093d b55a 3a3e 2de5 2dbe
000000e0: 120e ea3d 4aa8 543d 3775 acbd 5a79 c4bd
000000f0: ff67 12bc 8f99 edbd 27ed 9a3c 0c44 58be
00000100: 5f0e 403e 1f5c 6c3c e246 f5bd ef03 2c3e
00000110: b7e6 303e ea92 eb3b 7654 58be c343 4ebd
00000120: e337 34be dc24 d0bd 196b 4a3e 61a6 823d
00000130: 662d 0b3c fa76 5f3d 66fb 173e bb88 213e
00000140: 4e04 393e d206 23be 62e7 82bd 2dc2 2fbe
00000150: 0cb8 5ebe b1dd 94bd 5650 763c b579 4d3e
00000160: e1cf a33d 20b4 26be 1129 c6bd 2c26 613d
00000170: b4de 97bd bfb8 603e e366 603e 081f 113d
00000180: ada2 f5bd e07a 5cbd 578c 253e 5918 0bbe
00000190: cc47 d83d b060 4fbe 5591 c23d 2539 b33c
000001a0: 6809 ccbd 3c24 85bc bbe3 37be 5b8d 0f3c
000001b0: d84b 96bc 7ae5 b83d 90c2 c3bd bb0f 6f3d
000001c0: 59dc aa3c c1f1 2ebe b57f 0f3e a925 393e
000001d0: 8b5f 45be 871f 39be 7c56 073e 2c0b 9abd
000001e0: 2f7d 11bd 935a 55bd fac4 5d3e 62b7 ddbd
000001f0: 0a73 5f3e cfe3 0d3e 8d37 e0bd 7ca6 04be
00000200: 912f 01be 0835 e8bd 1d53 f2bd 29db 553e
00000210: f786 98bc 148f 1d3e 46bd ce3b 0504 33be
00000220: 0949 4fbd b65f 583e fd99 2b3e ba38 503a
00000230: 5938 46be aeab 483e fb69 14bc 99cb 1c3e
00000240: b1ca 46be 855a 533e f3d7 abbd b996 193e
00000250: 0699 a8bd 8b23 3e3d b344 343c 81b3 b5bc
00000260: 13bb e03d 6c40 2fbc 6d1d af3d 99c6 45bc
00000270: 44e8 d23c b78a dbbb 3ab9 5b3d 5e06 1bbe
00000280: 587a 243e f3d6 33bd 0bb6 303e 6d35 13bd
00000290: a426 d83d 877d 1dbe 4c86 04be f685 093c
000002a0: 087f eb3d a594 ddbd 35a0 ab3d 1ea5 27bd
000002b0: 2576 1abe e11c 553e 0fed d73c 60b0 45bd
000002c0: 12e8 e13c ff96 823d 745e 95bd af33 3ebe
000002d0: da27 27be 5dd9 473e c646 553b 46b7 aabd
000002e0: 9baf 93bd 9ea4 85bd aa06 19be f33f c7bd
000002f0: d10c 123e 45c0 5cbe 7205 22be 5494 febd
00000300: 3897 03be 2b46 41be 66f6 c23d 0ec5 58bd
00000310: 3b77 2dbe 7114 263e f7b5 813d 7a49 42be
00000320: 837b 333e c46d 92bd fc76 863d ee7e 633d
00000330: 07be 12bd 2f94 b9bd 9f0f f03d 2929 4bbe
00000340: a21a 0dba 0d08 293e 07dc a9bd e70c dd3c
00000350: 3334 82bd 74ab a53c 9844 4b3c 1f8c e1bd
00000360: a4ef b8bd 9e4d cc3d 1094 89bd 376f 93bd
00000370: cb80 8e3d cc02 d53d ddfc a4bc fcf5 bcbd
00000380: d008 c8bd 6fda bd3d a7d7 433d 1527 1d3e
00000390: 84b1 38be 8b04 753d 75e3 c63d 786d 2a3e
000003a0: b988 103e 3cb6 79bc b508 bcbc f4b8 093e
000003b0: 33f4 4abe d257 993d 67f1 343e 9847 81bd
000003c0: 7701 35be 90d9 e9bc 1046 023e 4043 26be
000003d0: 4265 e6bd 8767 3f3d 4ae5 2e3e f06e 59be
000003e0: 7e78 d0bb 94fb b23d d32d b33b 2eac 22be
000003f0: d1a7 abbd 7c98 683c 7314 233d 802d b73d

weight f4 [64]
1.0018785 0.99959475 0.9979666 1.0031736 1.0043393 0.9999739 0.99799144 0.99781036
0.9976836 0.99932915 0.9969781 0.9971378 1.0015258 0.9988758 1.0020821 0.9985803
1.0017564 1.0019484 0.99948716 1.0019372 1.0011641 0.9978001 0.9972016 1.0041491
0.99707556 1.0022695 1.0008615 0.99764377 1.0015241 0.9998925 1.0000608 0.99542046
0.997787 0.99760586 1.0034257 1.000912 1.0019989 0.99795705 0.9969693 1.0006802
0.99965876 1.0039729 0.999877 0.9984091 0.9989408 0.99810123 1.0013595 1.0022026
0.9990418 0.99839985 0.99871695 1.0046116 0.9985826 0.9944333 0.99761266 1.0009543
0.99498117 0.9989537 0.9986327 1.005281 0.9979635 0.99898237 0.99752206 0.9967662
00000000: 8e3d 803f 71e5 7f3f bd7a 7f3f fe67 803f
00000010: 318e 803f 4afe 7f3f 5e7c 7f3f 8070 7f3f
00000020: 3168 7f3f 09d4 7f3f f539 7f3f 6c44 7f3f
00000030: ff31 803f 53b6 7f3f 3a44 803f f5a2 7f3f
00000040: 8e39 803f d83f 803f 64de 7f3f 7a3f 803f
00000050: 2526 803f d46f 7f3f 9b48 7f3f f587 803f
00000060: 5840 7f3f 5e4a 803f 3b1c 803f 9565 7f3f
00000070: f131 803f f4f8 7f3f fe01 803f e0d3 7e3f
00000080: f86e 7f3f 1963 7f3f 4170 803f e21d 803f
00000090: 8041 803f 1d7a 7f3f 6139 7f3f 4a16 803f
000000a0: a3e9 7f3f 2f82 803f f0f7 7f3f bd97 7f3f
000000b0: 96ba 7f3f 9083 7f3f 8c2c 803f 2d48 803f
000000c0: 34c1 7f3f 2297 7f3f eaab 7f3f 1d97 803f
000000d0: 1ca3 7f3f 2e93 7e3f 8b63 7f3f 451f 803f
000000e0: 16b7 7e3f 6ebb 7f3f 65a6 7f3f 0cad 803f
000000f0: 897a 7f3f 4fbd 7f3f 9b5d 7f3f 122c 7f3f

bias f4 [64]
-0.0018373554 -0.00028571958 -0.0023896457 -0.001900852 0.0047804313 0.00043704888 0.00019356246 -0.0021531943
0.0024994162 0.00054084643 -0.0029012936 -0.0034703512 0.002066114 -0.003599306 -0.0024260962 -0.0023065144
0.0017855816 -0.0021628682 -0.00050819357 -0.0020713373 -0.0019088831 0.0024051794 0.0031229928 0.005131523
0.0021325166 -0.0023262708 0.0009135748 -0.002034984 0.0017176605 0.0024790957 -0.003942482 -0.0045302813
0.0009598773 0.0020930588 -0.0028137106 -0.0012102238 -0.002242438 -0.0026559744 0.0029107225 0.0032352784
-0.0026574149 0.0037811175 0.0038045095 -0.0016078597 0.00051292527 0.0015074064 0.0018128868 -0.002800831
0.0015314384 -0.0011540347 0.0013560959 -0.0049439245 -0.001088752 -0.0033155035 -0.0025848183 -0.0022432737
0.0056355596 0.00019143162 -0.0011051953 -0.004247173 0.0022666687 0.0013340758 0.0019460913 0.0036430846
00000000: 6bd3 f0ba a2cc 95b9 9a9b 1cbb 0226 f9ba
00000010: 2aa5 9c3b b523 e539 07f7 4a39 9b1c 0dbb
00000020: 3fcd 233b 97c7 0d3a a123 3ebb d56e 63bb
00000030: a467 073b 56e2 6bbb 24ff 1ebb e428 17bb
00000040: 2d0a ea3a e8be 0dbb 4b38 05ba 46bf 07bb
00000050: 7d33 faba 37a0 1d3b 20ab 4c3b 5626 a83b
00000060: b1c1 0b3b 5974 18bb f87c 6f3a 5e5d 05bb
00000070: 1f23 e13a 5378 223b f02f 81bb c172 94bb
00000080: 46a0 7b3a b32b 093b 3b66 38bb 5fa0 9eba
00000090: def5 12bb db0f 2ebb d2c1 3e3b f706 543b
000000a0: 0628 2ebb a0cc 773b 1455 793b d2be d2ba
000000b0: d575 063a 2a94 c53a 639e ed3a 268e 37bb
000000c0: 8cba c83a fb42 97ba 07bf b13a a500 a2bb
000000d0: 74b4 8eba eb48 59bb 0e66 29bb e303 13bb
000000e0: 80aa b83b 09bb 4839 33dc 90ba df2b 8bbb
000000f0: 648c 143b 28dc ae3a fd13 ff3a d1c0 6e3b

weight f4 [64, 64]
-0.08174948 0.08603256 -0.12183841 0.08586053 0.006041239 0.078329585 -0.09905226 0.09916297
-0.015045685 0.122523025 0.075719774 -0.08796694 -0.07280669 0.038754508 0.03752432 -0.06297867
0.12627378 -0.085339405 -0.08836239 -0.11410573 -0.121898584 0.12077888 0.091299765 -0.015515125
0.012653639 -0.05566504 0.05664479 0.009770823 0.10849832 0.1010317 0.03846352 -0.10456374
-0.09157911 -0.05627654 -0.021195203 0.008428991 0.065116756 -0.014686278 -0.046661407 0.08874488
0.12187214 0.074994 0.056771755 0.12288763 0.0012954122 0.078498706 -0.06999337 0.017989736
0.08719715 -0.10224235 0.044340767 -0.11127265 -0.0040343506 0.03560162 0.03550193 0.041213498
-0.121635504 0.089831956 0.05097096 0.04225956 0.100127585 -0.10173111 0.12395671 -0.11414369
0.0603534 0.045420103 0.11358541 0.076944426 0.02986843 -0.07545001 0.017607005 0.027769193
-0.0952245 0.0991279 -0.071195796 0.12055195 0.018534686 -0.025918845 -0.015243687 -0.110175945
0.061929185 0.0039907075 0.06640442 -0.12306803 0.024529224 0.010279704 -0.053429365 0.020673905
0.07897648 0.11095227 -0.085282214 0.1018091 -0.050152294 -0.04307755 -0.07577214 0.07492544
0.0024551216 -0.030731559 -0.12163902 0.12242306 0.016374238 0.026031224 -0.09750317 -0.12600118
-0.10064286 -0.080221735 -0.04643945 0.018304385 0.07499792 -0.058487084 0.053928036 -0.09206733
-0.095554054 -0.0015569567 -0.063971 0.120876305 0.06846687 -0.013656261 -0.018954467 -0.08130671
-0.09870616 -0.009556111 0.10483872 -0.0015877004 0.0546437 -0.06438429 0.012193568 -0.021888908
0.05111251 -0.0675519 0.07239988 -0.10126508 0.09037722 -0.03267773 -0.052801117 -0.079757236
0.10701321 -0.09551882 -0.121363744 -0.08951953 0.06412736 0.060215577 0.027350707 -0.11343386
0.050840672 -0.09917009 0.10924275 -0.10401164 -0.0007832854 0.048008855 0.03245185 -0.09825944
0.09134277 -0.11440585 0.006409615 0.01102568 0.119801864 -0.02365134 0.044765554 -0.0519435
0.10517726 -0.060466327 0.017757313 0.019108357 0.04351799 -0.041908782 0.02199363 0.0050721634
0.043529928 -0.058900036 0.08674001 -0.058022678 0.06410763 0.053354938 0.03906794 0.0101633025
-0.038646154 -0.054485712 -0.117697075 -0.07457365 0.10684087 -0.020724397 -0.006058969 0.0562145
-0.049556777 -0.095990665 -0.08604978 -0.0015674152 -0.074466035 -0.026269231 0.10609267 -0.057469975
0.048277147 -0.094639435 0.115490094 -0.035491195 -0.06456292 -0.0503421 -0.10948062 0.04117266
0.11629425 -0.076298304 -0.043101605 0.06746134 -0.058624618 -0.07918483 -0.0016356371 -0.10731929
0.12659258 0.030672276 0.07816001 -0.07566807 0.116224214 0.07974316 0.027697172 -0.0186267
0.04639367 -0.092255026 -0.07070739 -0.048921924 -0.06410957 -0.12188445 -0.03776553 -0.07459234
0.03267216 0.019117111 0.024972755 -0.04521094 -0.027570007 -0.07234831 0.10990347 -0.040044647
0.061431147 0.03696021 0.11157245 0.08876275 -0.0604154 0.08721799 0.10740795 0.06070472
-0.12027381 0.0033784527 -0.024554446 -0.019552287 0.1217983 -0.10762102 -0.08462108 -0.10461559
0.052827477 -0.12446191 0.010737379 -0.061468717 0.08414147 -0.0071229935 0.049107023 -0.08061284
00000000: 456c a7bd d731 b03d 6b86 f9bd a5d7 af3d
00000010: 96f5 c53b 436b a03d e9db cabd f515 cb3d
00000020: 2d82 76bc 5aed fa3d f812 9b3d 0328 b4bd
00000030: ad1b 95bd 0cbd 1e3d 1ab3 193d f6fa 80bd
00000040: ea4d 013e 6dc6 aebd 57f7 b4bd 44b0 e9bd
00000050: f7a5 f9bd eb5a f73d 5ffb ba3d 2733 7ebc
00000060: 3551 4f3c 0601 64bd 5e04 683d cd15 203c
00000070: 5e34 de3d b5e9 ce3d ed8b 1d3d 8425 d6bd
00000080: d48d bbbd 3b82 66bd 90a1 adbc c019 0a3c
00000090: ef5b 853d b79e 70bc 0820 3fbd e0bf b53d
000000a0: 1a98 f93d 7496 993d 8089 683d 82ac fb3d
000000b0: d2ca a93a eec3 a03d af58 8fbd 365f 933c
000000c0: 6b94 b23d 7064 d1bd aa9e 353d eae2 e3bd
000000d0: 9632 84bb 01d3 113d 796a 113d 7ccf 283d
000000e0: 091c f9bd d1f9 b73d edc6 503d 5c18 2d3d
000000f0: b10f cd3d 6658 d0bd 04dd fd3d 2bc4 e9bd
00000100: 2035 773d 6e0a 3a3d 789f e83d 0a95 9d3d
00000110: a3ae f43c 8985 9abd 913c 903c 387c e33c
00000120: 1005 c3bd 9203 cb3d 1acf 91bd f1e3 f63d
00000130: 0ed6 973c c253 d4bc a8c0 79bc eda3 e1bd
00000140: 75a9 7d3d 7bc4 823b 0aff 873d 170b fcbd
00000150: 83f1 c83c 346c 283c c0d8 5abd 525c a93c
00000160: 6cbe a13d f23a e33d 71a8 aebd 4a81 d03d
00000170: 7e6c 4dbd 1672 30bd 6c2e 9bbd 8272 993d
00000180: 1be6 203b c0c0 fbbc e11d f9bd f1b8 fa3d
00000190: 4423 863c 6f3f d53c beaf c7bd 7406 01be
000001a0: d81d cebd 4b4b a4bd 4b37 3ebd 14f3 953c
000001b0: 8298 993d 2790 6fbd a5e3 5c3d cc8d bcbd
000001c0: d8b1 c3bd cc12 ccba 3a03 83bd ff8d f73d
000001d0: 5c38 8c3d 83be 5fbc 6646 9bbc 2284 a6bd
000001e0: 7526 cabd 3c91 1cbc afb5 d63d 631a d0ba
000001f0: 13d2 5f3d e9db 83bd 88c7 473c 5e50 b3bc
00000200: 5a5b 513d a758 8abd 6346 943d 1164 cfbd
00000210: b117 b93d 15d9 05bd fc45 58bd c357 a3bd
00000220: be29 db3d 5f9f c3bd 8e8d f8bd 0456 b7bd
00000230: 3555 833d 9ca4 763d 970e e03c 0350 e8bd
00000240: 4f3e 503d b019 cbbd aaba df3d 0e04 d5bd
00000250: 6555 4dba efa4 443d 3bec 043d 3f3c c9bd
00000260: eb11 bb3d 9d4d eabd bf07 d23b 0ea5 343c
00000270: ae5a f53d 74c0 c1bc 165c 373d b5c2 54bd
00000280: 2d67 d73d 8aab 77bd c977 913c 2189 9c3c
00000290: eb3f 323d 8ba8 2bbd fc2b b43c 6434 a63b
000002a0: 704c 323d 2a41 71bd bfa4 b13d 30a9 6dbd
000002b0: dc4a 833d b58a 5a3d b405 203d fb83 263c
000002c0: 6e4b 1ebd 692c 5fbd 2a0b f1bd 12ba 98bd
000002d0: 63cf da3d 36c6 a9bc 518a c6bb 2d41 663d
000002e0: 0cfc 4abd c196 c4bd de3a b0bd ba71 cdba
000002f0: a681 98bd 9232 d7bc 1d47 d93d a365 6bbd
00000300: 42be 453d 52d2 c1bd 1286 ec3d 375f 11bd
00000310: 9039 84bd 8533 4ebd 6037 e0bd aaa4 283d
00000320: ae2b ee3d 4942 9cbd 4f8b 30bd 2c29 8a3d
00000330: 5e20 70bd a82b a2bd e062 d6ba 37ca dbbd
00000340: 7ca1 013e 6d44 fb3c 5b12 a03d dcf7 9abd
00000350: f606 ee3d 6250 a33d 2ee5 e23c 0597 98bc
00000360: 4a07 3e3d 34f0 bcbd 09cf 90bd 5b62 48bd
00000370: e14b 83bd 8e9e f9bd 07b0 1abd dec3 98bd
00000380: 3ed3 053d 7d9b 9c3c aa93 cc3c 1b2f 39bd
00000390: 7fda e1bc 5a2b 94bd 1215 e13d db05 24bd
000003a0: 3a9f 7b3d 9763 173d 1980 e43d 3fc9 b53d
000003b0: 2376 77bd 589f b23d b3f8 db3d 83a5 783d
000003c0: 1e52 f6bd 0869 5d3b 6826 c9bc 1e2c a0bc
000003d0: 6371 f93d 6968 dcbd d14d adbd b340 d6bd
000003e0: a061 583d e3e5 febd d5eb 2f3c 9fc6 7bbd
000003f0: 5d52 ac3d 0068 e9bb 7224 493d 5818 a5bd

weight f4 [64, 64]
0.10732779 -0.06341613 0.020555858 0.11914169 -0.004212661 0.0249247 0.045948293 0.08051477
-0.076534934 0.09922834 -0.077677205 0.10792991 -0.054968324 0.057329893 -0.082144335 0.073975585
-0.036671586 -0.09371325 0.016875654 0.04176299 -0.11849612 0.08805766 0.06468172 0.0027351186
0.09553837 0.02277235 0.025346648 -0.013574397 0.07808132 -0.09835836 -0.033005837 0.0842694
-0.06679479 -0.09429184 -0.06873164 0.0014847663 -0.015092473 -0.12105797 0.114113845 0.12322806
0.0912485 0.10869478 -0.110937215 0.11332745 -0.034694597 -0.114882655 0.092878506 -0.05777377
-0.017102819 0.055857826 -0.093939245 0.076396 0.10013632 0.059240915 0.1056336 -0.1006627
-0.051174026 0.061484598 -0.07300859 0.06822992 0.038300972 0.063104235 0.117539376 -0.055604655
-0.10131187 -0.08084377 -0.05710092 0.08688564 -0.09653089 0.030243665 -0.017570158 0.047701206
-0.08100267 -0.0958011 0.06110432 -0.042895816 -0.040980376 0.009214159 -0.078161344 0.039584845
0.06020737 0.07281387 0.11182382 0.10760017 0.04584042 0.095186085 0.016648762 0.051677868
0.10026957 0.09019054 0.050342936 -0.12014129 0.12012298 -0.11030177 0.068526186 -0.025256
0.000312558 -0.096588716 -0.08316191 0.031224042 0.10665895 -0.1243819 0.049201433 -0.076552264
-0.038524326 0.04644925 0.039664034 0.09510154 0.07701686 -0.12264607 0.06848955 -0.00057968585
0.08488357 -0.065415226 -0.09945392 0.003940988 -0.034394447 -0.09614696 -0.08145482 0.073677555
-0.11042433 0.11805099 0.022962367 -0.106942624 0.028546901 -0.064455554 0.0017517372 -0.06839748
0.08080533 0.07001419 0.10851715 -0.030877197 0.03724717 -0.034835473 0.08855216 0.041944932
0.039518055 0.030500302 -0.11521244 0.017823812 -0.117485516 -0.04487571 -0.037153725 0.10352155
0.03478448 0.0050578904 -0.05779634 -0.09506409 -0.02799923 -0.009299831 0.083695 0.016365804
0.10984148 0.0029760266 -0.1188037 0.083441116 -0.013542972 0.061669577 -0.03470496 -0.115551986
-0.082954206 0.06839806 -0.12157684 -0.060325556 0.017373595 -0.039328862 -0.08781036 0.11904551
-0.10784295 0.010779363 -0.0331281 0.018731156 0.11771992 -0.05018016 -0.040367473 -0.00020676023
-0.0028053268 0.036798384 0.023198346 -0.10807327 0.05832333 0.05271435 -0.058448393 0.017316844
-0.049002662 -0.010750466 0.052336056 -0.01470459 -0.04239504 -0.011874902 0.025799716 0.034565467
0.08278773 -0.076114275 -0.07166874 0.034847505 -0.047762617 0.07735265 0.105792746 -0.015457021
0.048701122 0.038405392 -0.08789806 -0.05895436 -0.016305218 0.09274689 0.07795182 0.003581107
-0.05151057 0.011599878 -0.014983754 0.097489476 0.06466816 0.11382658 0.018837128 -0.02705532
-0.10868026 -0.11409997 -0.10469606 -0.07186472 0.009607396 -0.098297976 0.11250111 -0.059842262
-0.046434946 0.07381868 -0.018716853 0.049034085 -0.036714807 -0.053881764 -0.057970162 0.018764174
0.119699374 0.0047699166 0.011539402 -0.036044423 0.09654555 -0.023260914 -0.10054072 0.06229306
-0.124892734 -0.08972303 0.08188662 0.11282567 -0.08063067 0.0393221 -0.01702341 0.03873352
-0.08840741 0.03268826 0.06633412 0.09886636 0.06329107 -0.044403803 -0.0030675523 -0.050954416
00000000: acce db3d 51e0 81bd c264 a83c 8f00 f43d
00000010: 5d0a 8abb e22e cc3c 4734 3c3d ede4 a43d
00000020: 59be 9cbd 3a38 cb3d 3a15 9fbd 5b0a dd3d
00000030: 7726 61bd c0d2 6a3d 4a3b a8bd 8380 973d
00000040: f234 16bd bbec bfbd d03e 8a3c ab0f 2b3d
00000050: 18ae f2bd 9357 b43d da77 843d ad3f 333b
00000060: 9fa9 c33d 148d ba3c c6a3 cf3c 2667 5ebc
00000070: 19e9 9f3d 1c70 c9bd 2131 07bd 6f95 ac3d
00000080: b5cb 88bd 151c c1bd 2dc3 8cbd 7d9c c23a
00000090: 6b46 77bc 3eed f7bd 85b4 e93d fe5e fc3d
000000a0: 7ee0 ba3d 5e9b de3d 0d33 e3bd 3918 e83d
000000b0: ec1b 0ebd 9947 ebbd 1637 be3d 30a4 6cbd
000000c0: 361b 8cbc 2dcb 643d 3863 c0bd 8275 9c3d
000000d0: 4514 cd3d 9aa6 723d 6e56 d83d 3f28 cebd
000000e0: db9b 51bd 46d7 7b3d 8785 95bd 21bc 8b3d
000000f0: 7be1 1c3d cb3c 813d 7cb8 f03d b5c1 63bd
00000100: 997c cfbd 6b91 a5bd a7e2 69bd 19f1 b13d
00000110: fdb1 c5bd 90c1 f73c 4bef 8fbc 5762 433d
00000120: bae4 a5bd 5e33 c4bd 8648 7a3d 86b3 2fbd
00000130: 0adb 27bd fcf6 163c 0e13 a0bd b823 223d
00000140: 019c 763d 701f 953d e303 e53d 7a5d dc3d
00000150: 2ac3 3b3d ecf0 c23d fc62 883c 2cac 533d
00000160: 225a cd3d d1b5 b83d 6534 4e3d a30c f6bd
00000170: 0903 f63d e5e5 e1bd 7557 8c3d ace5 cebc
00000180: d3de a339 4ed0 c5bd cb50 aabd 90c9 ff3c
00000190: 0270 da3d f0bb febd 7187 493d 6fc7 9cbd
000001a0: afcb 1dbd 9241 3e3d c176 223d 99c4 c23d
000001b0: 04bb 9d3d dd2d fbbd 4044 8c3d 0ff6 17ba
000001c0: 70d7 ad3d 6bf8 85bd 7fae cbbd 6723 813b
000001d0: 31e1 0cbd b3e8 c4bd c9d1 a6bd 42e4 963d
000001e0: 2726 e2bd b8c4 f13d 931b bc3c bc04 dbbd
000001f0: 31db e93c 4601 84bd 8c9a e53a fa13 8cbd
00000200: 447d a53d 9a63 8f3d 3d3e de3d 2df2 fcbc
00000210: 7d90 183d a4af 0ebd d65a b53d 73ce 2b3d
00000220: afdd 213d c5db f93c 80f4 ebbd 3e03 923c
00000230: 3f9c f0bd 98cf 37bd 812e 18bd 1b03 d43d
00000240: 2c7a 0e3d a9bc a53b dbbb 6cbd f6b0 c2bd
00000250: a45e e5bc 525e 18bc 4968 ab3d 9411 863c
00000260: 92f4 e03d 7109 433b 5b4f f3bd 2de3 aa3d
00000270: 57e3 5dbc 3d99 7c3d ca26 0ebd 85a6 ecbd
00000280: e5e3 a9bd 4814 8c3d 47fd f8bd ee17 77bd
00000290: 1253 8e3c 4d17 21bd ebd5 b3bd 22ce f33d
000002a0: c4dc dcbd ed9b 303c 55b1 07bd 1572 993c
000002b0: 2417 f13d b689 4dbd 5d58 25bd c7cd 58b9
000002c0: 93d9 37bb e7b9 163d 750a be3c 8555 ddbd
000002d0: 72e4 6e3d 01eb 573d 9567 6fbd 0edc 8d3c
000002e0: 04b7 48bd b922 30bc 555e 563d 85eb 70bc
000002f0: 6ca6 2dbd f38e 42bc ed59 d33c 8594 0d3d
00000300: 9d8c a93d cde1 9bbd 0fc7 92bd 42bc 0e3d
00000310: bca2 43bd 116b 9e3d dea9 d83d 723f 7dbc
00000320: d47a 473d f94e 1d3d e603 b4bd 217a 71bd
00000330: 8592 85bc 15f2 bd3d 34a5 9f3d 01b1 6a3b
00000340: bffc 52bd 6a0d 3e3c 6b7e 75bc 90a8 c73d
00000350: be70 843d e91d e93d 5250 9a3c 1ea3 ddbc
00000360: c293 debd 3fad e9bd e36a d6bd cf2d 93bd
00000370: 5768 1d3c 7350 c9bd fb66 e63d 291d 75bd
00000380: 9232 3ebd 402e 973d 1654 99bc f7d7 483d
00000390: 4462 16bd 20b3 5cbd 1f72 6dbd 53b7 993c
000003a0: f224 f53d f64c 9c3b c30f 3d3c 51a3 13bd
000003b0: acb9 c53d ac8d bebc 4be8 cdbd 0227 7f3d
000003c0: c3c7 ffbd b5c0 b7bd 2cb4 a73d 2511 e73d
000003d0: b121 a5bd 3610 213d ae74 8bbc 0aa7 1e3d
000003e0: f20e b5bd 20e4 053d 2fda 873d 727a ca3d
000003f0: c09e 813d c3e0 35bd fd08 49bb 94b5 50bd

bias f4 [64]
-0.052316923 -0.0004616914 -0.008890753 -0.046606082 -0.08847119 0.058101848 -0.029468019 -0.011340377
-0.103807785 -0.05443837 0.011428925 0.021508735 -0.037541065 -0.077669114 -0.07320596 -0.08473671
0.06938644 0.06937032 -0.10177868 -0.12276041 0.098108165 0.068140104 -0.12232816 -0.12497332
-0.06862211 0.085371464 0.02932712 -0.12151869 0.007001739 0.029686952 0.09492575 0.05300278
0.006551012 0.105340645 0.051723324 0.061806444 -0.03870899 0.087654136 0.016754659 -0.0124215
-0.05624439 -0.03511468 -0.096860126 0.047565047 0.059728514 -0.039701577 0.034120668 -0.06505494
-0.028716587 0.0846846 0.0045044245 -0.00328575 0.030266546 0.0028252348 -0.08932818 -0.026207928
-0.04033697 -0.08113731 0.09700624 -0.03027899 -0.09581358 0.029554753 0.0060665393 0.10790391
00000000: 454a 56bd 2c0f f2b9 85aa 11bc 05e6 3ebd
00000010: 6230 b5bd 34fc 6d3d ea66 f1bc fdcc 39bc
00000020: 2d99 d4bd c5fa 5ebd 6340 3b3c 1633 b03c
00000030: a9c4 19bd fc10 9fbd 02ed 95bd 718a adbd
00000040: 7a1a 8e3d 0712 8e3d 5771 d0bd cf69 fbbd
00000050: efec c83d 0a8d 8b3d 3087 fabd 03f2 ffbd
00000060: c089 8cbd 3cd7 ae3d 6e3f f03c cade f8bd
00000070: d86e e53b 0d32 f33c 6e68 c23d 7119 593d
00000080: dfa9 d63b d6bc d73d d6db 533d c128 7d3d
00000090: 518d 1ebd 0384 b33d 1141 893c 8c83 4bbc
000000a0: 8460 66bd 69d4 0fbd 9a5e c6bd 91d3 423d
000000b0: e3a5 743d 1f9e 22bd 1dc2 0b3d 863b 85bd
000000c0: 0c3f ebbc 1f6f ad3d da99 933b bd55 57bb
000000d0: 8cf1 f73c 9327 393b b1f1 b6bd 02b2 d6bc
000000e0: 6138 25bd 512b a6bd 35ab c63d a50b f8bc
000000f0: e939 c4bd cf1c f23c d2c9 c63b bafc dc3d

weight f4 [64]
0.9988597 1.0009291 0.9996274 1.0035193 1.0087768 0.99954104 1.0010673 1.0051502
0.9997816 0.9977191 0.998625 1.0018777 1.0038452 0.9968292 1.0022047 0.9947998
1.0009196 1.0015551 0.9975272 1.0037771 1.0000272 0.9987523 1.0045606 1.0055724
0.9997165 1.0011566 0.9976478 1.0035015 1.0025201 0.9996046 1.0022601 0.99595016
0.99526966 1.0025519 0.9957621 1.003887 1.005347 0.9985244 0.99615294 1.0027735
0.99522495 1.0053476 1.0010906 1.0030924 0.99760205 1.0013117 0.998284 0.9962318
0.9984328 0.9994248 0.99646217 1.0032191 1.0027629 0.9954065 1.0011102 1.0001637
0.9986686 1.0064292 0.9994602 1.0030763 0.9991475 1.0002339 1.0037408 0.9991743
00000000: 45b5 7f3f 721e 803f 95e7 7f3f 5273 803f
00000010: 991f 813f ece1 7f3f f922 803f c3a8 803f
00000020: b0f1 7f3f 856a 7f3f e3a5 7f3f 873d 803f
00000030: 007e 803f 3330 7f3f 3e48 803f 33ab 7e3f
00000040: 221e 803f f532 803f f15d 7f3f c57b 803f
00000050: e400 803f 3bae 7f3f 7195 803f 99b6 803f
00000060: 6ced 7f3f e625 803f d965 7f3f bd72 803f
00000070: 9452 803f 16e6 7f3f 0f4a 803f 97f6 7e3f
00000080: fec9 7e3f 9f53 803f 44ea 7e3f 5f7f 803f
00000090: 36af 803f 4c9f 7f3f e103 7f3f e25a 803f
000000a0: 10c7 7e3f 3baf 803f bd23 803f 5565 803f
000000b0: d962 7f3f fb2a 803f 8a8f 7f3f 0c09 7f3f
000000c0: 4b99 7f3f 4eda 7f3f 2518 7f3f 7c69 803f
000000d0: 895a 803f f6d2 7e3f 6124 803f 5d05 803f
000000e0: bfa8 7f3f acd2 803f a0dc 7f3f ce64 803f
000000f0: 21c8 7f3f aa07 803f 947a 803f e3c9 7f3f
